src/hehe-chan-ai/pytorch-chatbot/data.pth (torch, 5311 bytes, 6 tensors)

l1.weight f4 [8, 62]
-0.23068124 -0.27153915 0.53845984 0.36193082 0.5783687 -0.23804373 0.010922411 0.18577467
0.017837187 0.32720578 0.30956084 0.46839988 0.1559821 0.48245215 0.30578622 0.12843129
-0.047152087 -0.26136416 0.4741463 -0.50927955 -0.3494273 0.37391436 0.5626352 -0.110039316
0.6675556 0.6661526 0.6751384 0.15441543 0.40774179 -0.38162616 -0.29821467 -0.24506746
-0.35043517 0.03565158 -0.07250002 0.34369242 -0.12476618 0.023681844 0.5785756 -0.5499199
-0.32553 -0.10725841 -0.033908214 0.29580936 0.12252969 -0.10941941 -0.747171 0.19376162
-0.17144348 0.1909451 -0.19662027 -0.5405595 -0.19724038 0.05753248 -0.54053795 0.51761305
-0.2241728 -0.24014558 0.16319868 0.4343765 0.12484512 -0.043470956 0.4844103 -0.082084574
0.6525165 0.054898795 0.13405812 0.62968093 0.4549491 0.5216406 0.39097962 0.063012734
0.46662712 0.51056457 -0.32649884 -0.41860828 -0.12910466 -0.32550818 -0.08490096 0.6159416
0.29336733 0.47260165 -0.35744196 0.11370277 -0.3409094 0.45956394 -0.27069873 -0.22756094
-0.022324987 0.39607996 0.010201908 -0.36658794 -0.44417784 -0.27079007 -0.41342542 0.28088105
0.29675186 0.37146354 -0.1960571 -0.045872454 -0.31151715 0.584084 -0.25444946 0.5030451
0.48575777 0.4750822 -0.25038403 0.17363498 -0.5645986 -0.27280506 -0.18796171 0.35742813
-0.22188959 0.9301786 0.46804103 -0.12662075 0.70508915 -0.4790641 -0.09558778 -0.5011144
0.22499324 -0.42977342 0.38008493 -0.2437286 0.37212673 0.6357933 0.5641442 -0.5046616
0.11964874 -0.06619868 0.5097793 0.26641175 0.45666862 -0.04760912 0.45283937 0.5290603
0.15001075 -0.40315163 0.35414755 0.20211498 0.4988238 -0.105708584 -0.17482004 -0.21614738
0.09148636 0.014104143 -0.49203154 0.15865262 -0.57798386 -0.57786804 -0.19110401 0.6035546
-0.36253962 0.18718284 0.6665503 0.32266355 0.3900918 -0.22239287 0.22624326 0.4516878
0.7171598 -0.28270698 -0.39954177 0.10668837 0.37233388 0.5687006 0.42617294 0.36281782
-0.24765101 -0.1790149 -0.26423258 -0.121297576 0.67478347 0.37607476 0.7886083 0.64611894
0.4112471 0.2892073 0.5571985 -0.5779226 0.279155 -0.030296763 0.30627823 -0.57799244
0.6828129 -0.19934933 -0.108679205 -0.39169183 -0.6376276 -0.019995067 0.3731121 0.86207604
0.025773555 -0.29173848 -0.6593697 0.21046348 -0.2727659 -0.633383 0.07923396 -0.47035047
0.25426224 0.010439297 -0.3028636 0.8577791 0.42249465 0.62103856 0.6102936 0.12714776
0.055836804 -0.0835622 0.0458241 0.049803663 0.050685253 -0.22909276 -0.15353115 0.568272
-0.29415357 0.3588605 -0.5461539 0.6904335 0.020855319 -0.4089906 -0.26126167 0.3314422
-0.28339335 0.5570049 0.41696545 -0.4441516 -0.6137974 -0.19532728 0.36927068 0.6811475
0.8791601 0.4699159 -0.18566436 -0.4109934 -0.15567371 -0.4465691 -0.020952193 0.50937825
-0.5761423 -0.024692744 0.54703045 0.45873073 0.22100033 0.08381918 0.21779871 0.44327405
0.5827435 0.48527235 0.06453413 -0.36158285 -0.54336417 -0.49751127 0.4330919 0.1399174
00000000: b437 6cbe 2e07 8bbe 81d8 093f ff4e b93e
00000010: f90f 143f bcc1 73be eaf3 323c b73b 3e3e
00000020: 4b1f 923c 8487 a73e c27e 9e3e 1cd2 ef3e
00000030: c6b9 1f3e f803 f73e 0390 9c3e 7e83 033e
00000040: 8c22 41bd 86d1 85be 4ec3 f23e 2560 02bf
00000050: 23e8 b2be b471 bf3e dc08 103f 4b5c e1bd
00000060: ece4 2a3f fa88 2a3f dfd5 2c3f 141f 1e3e
00000070: 88c3 d03e 8164 c3be 98af 98be f7f2 7abe
00000080: 3d6c b3be 6407 123d e47a 94bd 74f8 af3e
00000090: 6985 ffbd 6d00 c23c 881d 143f 8dc7 0cbf
000000a0: deab a6be 4caa dbbd 57e3 0abd 5374 973e
000000b0: d9f0 fa3d 4917 e0bd 9946 3fbf 7269 463e
000000c0: e18e 2fbe 1d87 433e d356 49be 1b62 0abf
000000d0: 62f9 49be 2ea7 6b3d b260 0abf 4a82 043f
000000e0: 8e8d 65be b9e8 75be 8e1d 273e 9966 de3e
000000f0: ccae ff3d 9a0e 32bd a004 f83e f51b a8bd
00000100: 520b 273f 8fdd 603d 8846 093e c532 213f
00000110: 17ef e83e 3d8a 053f 7b2e c83e d20c 813d
00000120: c0e9 ee3e 5cb4 023f db2a a7be d353 d6be
00000130: 0334 04be 02a9 a6be 8ee0 adbd 59ae 1d3f
00000140: 3e34 963e d8f8 f13e a202 b7be ffdc e83d
00000150: ad8b aebe f74b eb3e 0699 8abe bc05 69be
00000160: e4e2 b6bc feca ca3e e725 273c 6ab1 bbbe
00000170: 476b e3be ffa4 8abe 7fac d3be a4cf 8f3e
00000180: dcef 973e 7830 be3e 31c3 48be c1e4 3bbd
00000190: 2d7f 9fbe 8786 153f 3347 82be 90c7 003f
000001a0: 3eb5 f83e f93d f33e 5632 80be 5ecd 313e
000001b0: 8989 10bf 1bad 8bbe 0979 40be d200 b73e
000001c0: 0637 63be 2f20 6e3f 13a3 ef3e dfa8 01be
000001d0: b980 343f e447 f5be 87c3 c3bd 0949 00bf
000001e0: a164 663e 430b dcbe 7e9a c23e fd93 79be
000001f0: 6587 be3e 5ac3 223f c16b 103f 8131 01bf
00000200: 660a f53d 2c93 87bd e580 023f 1f67 883e
00000210: 78d0 e93e c801 43bd 90da e73e 7f70 073f
00000220: 6b9c 193e e469 cebe d452 b53e 3bf7 4e3e
00000230: d565 ff3e be7d d8bd 0604 33be bd55 5dbe
00000240: 335d bb3d 1015 673c 8feb fbbe d575 223e
00000250: c0f6 13bf 29ef 13bf c5b0 43be 8e82 1a3f
00000260: cb9e b9be dcac 3f3e 0aa3 2a3f 2834 a53e
00000270: 1dba c73e f5ba 63be 50ac 673e a043 e73e
00000280: c997 373f f8be 90be bd90 ccbe 6f7f da3d
00000290: 8ca2 be3e 5d96 113f 5733 da3e 42c3 b93e
000002a0: 3a98 7dbe af4f 37be 7e49 87be dd6a f8bd
000002b0: 9cbe 2c3f df8c c03e 3ce2 493f 0d68 253f
000002c0: fb8e d23e fb12 943e 90a4 0e3f bcf2 13bf
000002d0: 67ed 8e3e eb30 f8bc 80d0 9c3e 50f7 13bf
000002e0: d4cc 2e3f 3b22 4cbe 3493 debd d58b c8be
000002f0: 903b 23bf b2cc a3bc 8d08 bf3e 04b1 5c3f
00000300: 1023 d33c bf5e 95be 74cc 28bf bd83 573e
00000310: f9a7 8bbe 6325 22bf 6a45 a23d c7d1 f0be
00000320: a92e 823e 9609 2b3c f010 9bbe 6997 5b3f
00000330: 3851 d83e 62fc 1e3f 343c 1c3f 0633 023e
00000340: 22b5 643d a922 abbd 0db2 3b3d edfe 4b3d
00000350: 579b 4f3d 4b97 6abe 4537 1dbe 467a 113f
00000360: 4c9b 96be 90bc b73e bed0 0bbf 40c0 303f
00000370: c6d8 aa3c 3767 d1be 17c4 85be cbb2 a93e
00000380: ef18 91be e097 0e3f 7f7c d53e d767 e3be
00000390: d421 1dbf e003 48be 0c11 bd3e af5f 2e3f
000003a0: a310 613f d198 f03e cc1e 3ebe ba6d d2be
000003b0: ee68 1fbe b4a4 e4be efa3 abbc 9d66 023f
000003c0: 107e 13bf 7048 cabc 300a 0c3f c1de ea3e
000003d0: e94d 623e 64a9 ab3d a006 5f3e d1f4 e23e
000003e0: ae2e 153f 9e75 f83e 782a 843d 6321 b9be
000003f0: ea19 0bbf ccb9 febe 39be dd3e 8246 0f3e

l1.bias f4 [8]
0.5405289 0.9741055 0.57796687 0.9055275 0.49752674 0.6777564 0.5193192 0.5386038
00000000: 1a60 0a3f fa5e 793f a3f5 133f a6d0 673f
00000010: d3bb fe3e 7281 2d3f 1af2 043f f0e1 093f

l2.weight f4 [8, 8]
-0.9467706 1.3144488 0.50852996 1.3596449 0.3553365 0.07373821 -1.4558619 -0.33319235
1.4830991 0.7428393 -0.06257415 0.32556728 -0.8081362 1.5722193 0.6348358 0.6316273
0.013819517 0.86212784 1.4157101 -1.1642877 1.0359921 -0.0367531 1.0072765 -1.1560774
-0.07227966 -0.018613815 -0.14171608 -0.16473289 -0.20645857 -0.2449458 0.28236583 -0.23238364
0.12849304 -0.056755316 0.25303766 -0.14600274 -0.27682248 0.3023452 -0.23677237 -0.0065096365
0.9066463 -0.34101817 -0.3453411 -0.017225418 0.13038525 0.32344434 1.0949556 1.1766936
-0.7135792 0.8033188 0.92461157 -0.77715963 1.1441656 -0.32514974 0.7000991 0.5219425
-1.1135972 -0.4326522 0.5508753 1.0429944 0.46287856 -1.085433 0.44675356 1.0649503
00000000: 8f5f 72bf dc3f a83f 052f 023f d808 ae3f
00000010: aaee b53e 0f04 973d af59 babf 3098 aabe
00000020: 31d6 bd3f b72a 3e3f e026 80bd c1b0 a63e
00000030: 04e2 4ebf 7b3e c93f 9984 223f 54b2 213f
00000040: 416b 623c 69b4 5c3f fd35 b53f 6107 95bf
00000050: 649b 843f 6b8a 16bd 70ee 803f 58fa 93bf
00000060: 5c07 94bd 007c 98bc 051e 11be bdaf 28be
00000070: e069 53be 12d3 7abe 4192 903e faf5 6dbe
00000080: ae93 033e 4378 68bd 278e 813e be81 15be
00000090: adbb 8dbe fdcc 9a3e 7574 72be ca4e d5bb
000000a0: f919 683f ef99 aebe 8cd0 b0be 521c 8dbc
000000b0: b683 053e 7f9a a53e 8127 8c3f e59d 963f
000000c0: 20ad 36bf 4da6 4d3f 58b3 6c3f eff3 46bf
000000d0: 0574 923f 077a a6be b239 333f 069e 053f
000000e0: 5a8a 8ebf 9784 ddbe 2a06 0d3f d780 853f
000000f0: 6bfe ec3e 78ef 8abf e2bc e43e 4b50 883f

l2.bias f4 [8]
0.903123 0.24761377 0.3993848 -0.12546097 -0.35563275 0.27907932 0.052910965 0.008734349
00000000: 1233 673f 778e 7d3e 2a7c cc3e d778 00be
00000010: 7f15 b6be 7ce3 8e3e 2bb9 583d 841a 0f3c

l3.weight f4 [7, 8]
-1.3260976 -1.6235634 0.57527393 0.32461545 0.12266851 -0.08852725 0.6232373 0.009122512
0.8930732 0.42473722 -0.9785351 -0.08569762 0.27401704 -0.7423562 -0.78760517 -0.7487248
-1.1029173 0.7559277 -0.83078706 0.31128302 0.06021171 0.97340316 -0.712828 -1.201772
0.54899 -1.0904492 -0.9867865 -0.07044768 0.06392985 -0.75377303 -0.28771937 1.0358753
-0.86588806 0.38038555 0.43884325 0.2702169 0.2097682 -0.6615549 0.4516276 -1.2040006
-0.6462641 -0.402984 -0.4158911 -0.13778825 -0.35832196 0.4063579 0.56355 0.29446563
0.84259516 -1.2237985 0.4753442 -0.16082335 -0.30284575 -1.2889563 0.6388844 -1.2012938
00000000: 91bd a9bf edd0 cfbf 2745 133f ff33 a63e
00000010: a139 fb3d c64d b5bd 7b8c 1f3f 9776 153c
00000020: 72a0 643f 2877 d93e 4781 7abf 3c82 afbd
00000030: f64b 8c3e 0e0b 3ebf 7ea0 49bf 6eac 3fbf
00000040: 652c 8dbf 7a84 413f 76ae 54bf 7d60 9f3e
00000050: 8ea0 763d f330 793f e57b 36bf aad3 99bf
00000060: 9c8a 0c3f d793 8bbf 0a9e 7cbf e046 90bd
00000070: a7ed 823d 45f7 40bf f44f 93be 9097 843f
00000080: d7aa 5dbf e5c1 c23e 10b0 e03e df59 8a3e
00000090: 7acd 563e a95b 29bf bc3b e73e b11c 9abf
000000a0: 9071 25bf eb53 cebe aeef d4be 5d18 0dbe
000000b0: fa75 b7be 250e d03e d044 103f 33c4 963e
000000c0: 51b4 573f 6ea5 9cbf 5160 f33e e0ae 24be
000000d0: 990e 9bbe 85fc a4bf ee8d 233f ffc3 99bf

l3.bias f4 [7]
-0.0028823668 0.29803133 0.15456656 0.06159344 -0.394795 -0.27275255 -0.18186787
00000000: 17e6 3cbb 9097 983e b246 1e3e 6749 7c3d
00000010: 9222 cabe 39a6 8bbe 923b 3abe
