src/hehe-chan-ai/pytorch-chatbot/data.pth (torch, 4991 bytes, 6 tensors)

l1.weight f4 [8, 54]
0	0x3e4cd824	0.20004326
1	0xbe809ce4	-0.25119698
2	0x3ecb0d62	0.39658648
3	0xbea49465	-0.32144466
4	0x3c87182e	0.016491022
5	0xbe40bd19	-0.18822135
6	0x3ed2ec99	0.41196135
7	0x3e9024cb	0.2815307
8	0x3f3285dc	0.69735503
9	0x3eceef71	0.40417054
10	0xbe2ccf6f	-0.16876005
11	0x3f1b4f26	0.60667646
12	0x3efcc759	0.4937084
13	0x3f3c8a18	0.73648214
14	0x3c6591eb	0.01401184
15	0x3eba321d	0.36366358
16	0xbe1d3ab3	-0.15354423
17	0xbe40e30e	-0.18836614
18	0x3ee25a19	0.44209364
19	0xbea4fdef	-0.32224986
20	0x3d30aa4d	0.04313116
21	0xbea50b2a	-0.3223508
22	0xbea5107e	-0.32239145
23	0xbe737233	-0.23774032
24	0x3f0f982b	0.56091565
25	0xbe93bf48	-0.28856874
26	0x3f3844b8	0.71979856
27	0xbedaa263	-0.42702016
28	0x3ecd00ba	0.40039617
29	0xbeae454b	-0.3403724
30	0xbeaa2ea5	-0.33238712
31	0x3f336efa	0.7009121
32	0x3c6b18da	0.014349187
33	0x3efa9180	0.48939133
34	0xbdd225f6	-0.10261147
35	0x3e79eabe	0.24405953
36	0x3ecfc6f0	0.40581465
37	0x3f0bfa37	0.5467867
38	0x3e81b8a0	0.2533617
39	0x3eddddf1	0.4333339
40	0xbe407f00	-0.18798447
41	0x3ecc2772	0.39873844
42	0x3ec001d7	0.37501404
43	0xbd4337e2	-0.047660716
44	0x3f04251b	0.5161912
45	0xbe3e704e	-0.18597528
46	0x3e6605c3	0.22463135
47	0x3e0797e5	0.13241537
48	0x3e9ec28b	0.310078
49	0x3f446068	0.76709604
50	0x3ec6e726	0.38848227
51	0x3f015c25	0.50531226
52	0x3f003f7b	0.50096864
53	0x3e4f842c	0.20265263
54	0x3f20f458	0.6287284
55	0x3f05c2b1	0.522502
56	0x3eb8edba	0.3611887
57	0xbe2f1c85	-0.17100723
58	0xbd261604	-0.04054834
59	0xbee4d8ad	-0.4469656
60	0x3e3eb5e0	0.18624067
61	0x3e97b799	0.2963226
62	0x3f292ea6	0.66086805
63	0x3f0638b1	0.52430254
64	0xbe4baa88	-0.19889271
65	0x3ed173ab	0.4090856
66	0x3c3b778a	0.011442075
67	0x3efad400	0.48989868
68	0x3ef81ed4	0.4846102
69	0x3ed98198	0.42481685
70	0xbe82bfaf	-0.25536868
71	0xbee4388a	-0.44574386
72	0xbe5b5f82	-0.21423152
73	0xbee890e9	-0.45423058
74	0x3eb359c5	0.35029426
75	0xbee89152	-0.4542337
76	0xbee8a97f	-0.45441815
77	0xbeface4a	-0.4898551
78	0x3ecb150e	0.396645
79	0xbdf943ad	-0.12171111
80	0xbe5f3bae	-0.2180011
81	0x3f16094e	0.5860795
82	0x3d2f9054	0.04286225
83	0x3f06ada6	0.52608716
84	0xbead320e	-0.3382725
85	0x3f00e60a	0.5035101
86	0x3ecee6bc	0.4041041
87	0x3f0d708c	0.5524986
88	0x3f00a453	0.5025074
89	0x3e6f3b58	0.23362482
90	0x3b173492	0.0023072106
91	0x3f282ff2	0.6569816
92	0x3e70cd1e	0.23515746
93	0x3e11ad22	0.14226201
94	0xbed730f4	-0.42029536
95	0xbeb969f8	-0.3621366
96	0x3ebaba03	0.3647004
97	0x3ef12e6e	0.47105736
98	0x3f0cb521	0.5496388
99	0x3f15ae41	0.58469015
100	0x3f97c81a	1.1857941
101	0x3f1ad671	0.6048346
102	0xbe2542a1	-0.16138698
103	0xbed0bc20	-0.40768528
104	0x3e95e10c	0.2927326
105	0xbeaccb9f	-0.337491
106	0x3e841357	0.25796005
107	0x3e9bd0ac	0.30432642
108	0xbd752797	-0.05985221
109	0x3f163c4a	0.58685744
110	0x3e28d82f	0.16488717
111	0x3ea123db	0.31472668
112	0x3e765560	0.24056005
113	0xbec02618	-0.37529063
114	0x3e9f503d	0.31115904
115	0x3e5e9ebe	0.21740243
116	0x3cb9979d	0.022655303
117	0x3ecff19f	0.4061403
118	0x3eddeb76	0.43343705
119	0xbe959ada	-0.29219705
120	0x3d5617bb	0.052268725
121	0xbea3497f	-0.3189201
122	0x3f1a4665	0.60263664
123	0xbe12a1d8	-0.14319551
124	0x3f082fec	0.5319812
125	0xbe9766c8	-0.29570603
126	0xbeaee473	-0.34158668
127	0x3f1773fe	0.59161365
128	0xbdd2295a	-0.102617934
129	0x3f169790	0.58825016
130	0x3f01c90e	0.5069741
131	0x3e9c5d00	0.30539703
132	0x3e40bda3	0.1882234
133	0x3ee6677d	0.4500083
134	0xbe9f17da	-0.31072885
135	0x3f5fd267	0.87430423
136	0xbe898a55	-0.2686335
137	0x3f1b7b18	0.607347
138	0xbec71f73	-0.3889118
139	0xbea70a05	-0.32624832
140	0xbdb2624b	-0.08710154
141	0x3e90c289	0.2827342
142	0x3f360f14	0.7111676
143	0xbeaf46df	-0.34233758
144	0xbe079b7b	-0.13242905
145	0x3c2ac0fd	0.010421989
146	0x3ebebaea	0.3725198
147	0x3e9697b1	0.29412606
148	0xbe1a380e	-0.15060446
149	0xbec04561	-0.37552932
150	0xbe848389	-0.25881603
151	0x3ee34312	0.44387108
152	0xbe11cb73	-0.14237766
153	0x3f402112	0.7505046
154	0xbe931e8d	-0.28734246
155	0xbc9ac048	-0.018890515
156	0x3e494044	0.19653422
157	0xbeeebac7	-0.46626875
158	0xbe50ca16	-0.2038959
159	0xbe76594b	-0.240575
160	0x3e934db2	0.28770214
161	0x3e0844e7	0.13307534
162	0x3d02f4fe	0.031971924
163	0xbf0cf7d4	-0.55065656
164	0x3eab09b3	0.33405837
165	0x3ea1c6eb	0.31597075
166	0x3f122e8c	0.57102275
167	0xbe813108	-0.2523272
168	0x3f045819	0.51696926
169	0x3eb69799	0.35662535
170	0x3ed0b704	0.4076463
171	0x3e8eb886	0.27875155
172	0x3f0da4ba	0.5532948
173	0x3f0d9d73	0.55318373
174	0x3f64ed5e	0.89424694
175	0x3f1cb5d6	0.6121496
176	0xbe685a31	-0.22690655
177	0x3ebcf535	0.36905828
178	0x3ec842de	0.39113516
179	0xbe8cd3a3	-0.27505216
180	0x3ed945b0	0.4243598
181	0x3f1aa0a6	0.6040138
182	0xbe2abc7a	-0.1667346
183	0x3f2fec0b	0.6871955
184	0x3ef56afb	0.47933182
185	0x3e9686e7	0.29399797
186	0x3e93ded8	0.28880954
187	0x3f0965a6	0.5367073
188	0x3f2efa23	0.6835043
189	0xbf075549	-0.5286451
190	0x3eed8558	0.46390796
191	0xbf230250	-0.63675404
192	0xbe99111b	-0.29895863
193	0x3ed1c70a	0.40972167
194	0x3db9b721	0.09068132
195	0x3edd05fa	0.43168622
196	0xbe8aa618	-0.27079844
197	0x3eb72c60	0.35776043
198	0x3f23c6fc	0.639755
199	0x3f146947	0.5797314
200	0x3ef68294	0.48146498
201	0x3ebf2df6	0.37339753
202	0xbe0465b9	-0.12929429
203	0x3f27f484	0.65607476
204	0x3efe73e6	0.49697798
205	0xbd9c22c9	-0.07623822
206	0x3f0b774e	0.5447892
207	0xbd795a53	-0.060877156
208	0xbf226e17	-0.63449234
209	0xbd68576a	-0.05672399
210	0x3f3da313	0.74076957
211	0x3f6c95a0	0.9241581
212	0x3e5eb2c0	0.21747875
213	0x3eee066a	0.4648927
214	0x3ed7388b	0.42035326
215	0x3ebc2936	0.3675019
216	0xbe440edd	-0.19146295
217	0x3ed4afcb	0.4154037
218	0x3ed07b43	0.4071904
219	0x3e444bb0	0.19169497
220	0x3f0c9c76	0.5492624
221	0xbee7b2ad	-0.45253506
222	0x3ea0b29a	0.31386262
223	0x3ec397d9	0.38201788
224	0x3ef0516f	0.4693713
225	0x3ed00153	0.4062601
226	0x3ecd58d1	0.40106824
227	0xbe34d77f	-0.1766033
228	0x3f000602	0.5000917
229	0xbde1eaf3	-0.11031141
230	0x3eed3b67	0.46334383
231	0xbdc36c90	-0.09542191
232	0x3f0e5b5b	0.5560815
233	0xbef32826	-0.47491568
234	0x3e4f9262	0.20270684
235	0x3f2525e7	0.6451096
236	0xbe80ae76	-0.25133103
237	0x3f250a9b	0.6446931
238	0x3f1f41bd	0.62209684
239	0x3dc74d24	0.0973151
240	0xbe5116ee	-0.20418903
241	0x3e919a27	0.2843792
242	0x3e3079a4	0.17233902
243	0x3eca4af4	0.3951031
244	0xbe1649b2	-0.1467655
245	0x3e75586e	0.23959514
246	0xbe984dbf	-0.29746816
247	0xbe777bd9	-0.24168338
248	0xbcb92c32	-0.022604082
249	0x3eeb2c0d	0.45932046
250	0x3f0c60fa	0.54835474
251	0xbda42af7	-0.080160074
252	0xbc077310	-0.008267179
253	0x3f0672e6	0.5251907
254	0x3eb73b2c	0.35787332
255	0x3e942308	0.28932977

l1.bias f4 [8]
0	0x3ea4fbb0	0.32223272
1	0x3ee88c6c	0.45419633
2	0x3f3db90b	0.7411048
3	0x3f226a93	0.6344387
4	0x3ef3383d	0.47503844
5	0x3f8546ac	1.0412192
6	0x3d5354fa	0.05159471
7	0x3f114685	0.5674823

l2.weight f4 [8, 8]
0	0x3f012089	0.5044027
1	0x3f6184e4	0.880934
2	0xbf424144	-0.7588084
3	0x3e62d865	0.2215286
4	0xbf19a81e	-0.6002215
5	0x3ee0cd4c	0.4390663
6	0xbe96aa7b	-0.2942694
7	0x3fa8518d	1.3149887
8	0xbc94223f	-0.018082736
9	0x3fc08ce9	1.5043002
10	0x3f472c1a	0.7780167
11	0xbdc6a784	-0.0969992
12	0x3ea38929	0.31940582
13	0x3f32e79a	0.69884646
14	0x3f9fd358	1.2486372
15	0xbe6e1f81	-0.23254205
16	0xbdf05ff8	-0.117370546
17	0x3f9f03b0	1.2423
18	0x3e9a5d6a	0.30149394
19	0xbef43718	-0.47698283
20	0x3e8a0b51	0.2696176
21	0x3e9ab7d6	0.3021838
22	0x3f1919bd	0.598049
23	0x3d85de13	0.06536498
24	0xbf722462	-0.94586766
25	0x3e6fa695	0.2340339
26	0x3f7ec65d	0.9952143
27	0xbed86a89	-0.4226878
28	0xbf04c873	-0.5186836
29	0x3f9c3fb0	1.2206936
30	0xbf0f6481	-0.5601273
31	0x3f5e8093	0.8691494
32	0x3f9558d8	1.1667738
33	0xbf2d4f21	-0.67698866
34	0xbe969fac	-0.29418695
35	0x3f800e78	1.0004416
36	0x3f42781a	0.7596451
37	0xbe466535	-0.19374545
38	0x3e9ef2e6	0.31044692
39	0x3f89e508	1.077302
40	0xbd18cfc9	-0.037307534
41	0xbf5a3a06	-0.85244787
42	0x3f8d5e69	1.1044437
43	0x3f8ce517	1.1007413
44	0x3fabcc18	1.342166
45	0x3f5d59c7	0.86465114
46	0xbe300f79	-0.17193402
47	0xbf72c719	-0.9483505
48	0xbe997232	-0.29969937
49	0x3e38c776	0.18044838
50	0x3e4813b0	0.1953876
51	0xbe54e76a	-0.20791402
52	0x3c9a5cdb	0.018843105
53	0xbe1d6340	-0.15369892
54	0xbe0a4c75	-0.13505729
55	0xbe39a2d6	-0.18128523
56	0x3f5ed67c	0.8704603
57	0x3fab3edf	1.3378562
58	0x3deb5c22	0.11492182
59	0x3f050779	0.5196453
60	0x3c95fd4b	0.018309256
61	0xbd57e215	-0.052705843
62	0x3f10fd1f	0.5663623
63	0x3dafed1f	0.08590149

l2.bias f4 [8]
0	0x3f1c01b0	0.60940075
1	0xbe2d82e6	-0.16944465
2	0xbefdc603	-0.49565133
3	0x3f6f83ed	0.9356068
4	0x3f088643	0.5332987
5	0x3ec82742	0.3909245
6	0xbeb9021c	-0.36134422
7	0xbed6501a	-0.41857988

l3.weight f4 [7, 8]
0	0x3f1dad2f	0.6159238
1	0xbe87b0c9	-0.26502064
2	0xbf1b2483	-0.6060259
3	0xbf847762	-1.0348933
4	0x3e6b2e86	0.22966966
5	0xbf97e99f	-1.186817
6	0xbec5f8f9	-0.38666514
7	0x3eca0bc5	0.39462104
8	0xbf6807ba	-0.9063679
9	0x3efcecb8	0.49399352
10	0x3f1e995d	0.61952764
11	0x3e1408aa	0.1445643
12	0xbfaedb9f	-1.3660773
13	0xbd3ab8e5	-0.045586485
14	0xbe80faab	-0.25191244
15	0x3e0f159f	0.13973092
16	0x3f29d482	0.66339886
17	0xbe387a1e	-0.18015334
18	0xbfaa6c66	-1.331433
19	0x3f27df33	0.6557495
20	0x3e2a822e	0.16651222
21	0xbf0dda07	-0.5541081
22	0x3e4b3f69	0.19848408
23	0xbfc95b87	-1.5731057
24	0xbf87311e	-1.0561864
25	0x3d48f67d	0.049063195
26	0xbf6ade1e	-0.91745174
27	0x3e37534f	0.17902873
28	0xbf1d6dec	-0.6149585
29	0x3f8b991f	1.0906104
30	0x3debfda9	0.11522991
31	0xbf2e4556	-0.6807455
32	0x3e49f3f1	0.19721963
33	0xbfd99b74	-1.7000566
34	0xbfd2dbe4	-1.6473355
35	0xbf608230	-0.8769865
36	0x3efca770	0.49346495
37	0x3e20bfb5	0.1569813
38	0x3e6a48c4	0.2287932
39	0x3ea23508	0.31681085
40	0xbf3fd1c3	-0.74929446
41	0x3eeed6c2	0.46648222
42	0x3e40cbf0	0.18827796
43	0xbfa0b064	-1.255383
44	0xbd8a6f1e	-0.06759475
45	0x3d8f9533	0.07010879
46	0xbe901adc	-0.28145492
47	0x3ec6c3c5	0.38821235
48	0x3f07d148	0.5305371
49	0x3ed03dd3	0.40672168
50	0x3f21f8a3	0.63270015
51	0x3d908e4c	0.07058391
52	0xbfaccf8c	-1.3500838
53	0xbfa1f5c7	-1.265313
54	0x3d6e664c	0.058203027
55	0x3f0b18ac	0.5433452

l3.bias f4 [7]
0	0xbb9e12d7	-0.004824023
1	0xbf0ff9f5	-0.5624078
2	0x3e93a1f8	0.2883451
3	0x3e3fdf5a	0.18737546
4	0xbe0e5000	-0.13897705
5	0x3e4e2e66	0.20134887
6	0x3db7b7b4	0.089705855
