src/hehe-chan-ai/data.pth (torch, 5311 bytes, 6 tensors)

l1.weight f4 [8, 62]
0	0xbe849f19	-0.25902632
1	0xbeabe885	-0.33575836
2	0x3f2699b6	0.65078294
3	0x3eb25444	0.34829915
4	0x3f00f8c6	0.503796
5	0x3f589ac2	0.8461114
6	0x3f15697a	0.5836407
7	0x3f22b23c	0.63553214
8	0x3f0b725c	0.54471374
9	0x3ee2876f	0.44243953
10	0x3ee3d0c6	0.4449522
11	0x3f1ea025	0.6196311
12	0x3e413b9b	0.18870394
13	0x3e49fd02	0.19725421
14	0x3f044223	0.51663417
15	0x3e23b95a	0.15988675
16	0xbe89cdc9	-0.26914814
17	0x3f5bff5a	0.8593651
18	0x3f30ed10	0.6911173
19	0x3f537f23	0.8261587
20	0x3eb054e1	0.34439757
21	0x3e9d1715	0.30681673
22	0x3f16af0a	0.5886084
23	0xbd1c788b	-0.038200896
24	0x3ec3fe72	0.38280064
25	0x3ee9a090	0.45630312
26	0x3f0034b2	0.50080407
27	0x3f328ada	0.6974312
28	0x3ea77a54	0.32710516
29	0x3e8e8820	0.2783823
30	0xbedd9c7e	-0.43283457
31	0x3e8aabe4	0.27084267
32	0xbf122da8	-0.57100916
33	0x3ee16c7a	0.44028074
34	0xbdc97ddc	-0.09838459
35	0x3f18d5a4	0.5970099
36	0xbe645d31	-0.22301175
37	0x3dacb4aa	0.084328964
38	0x3ebabbce	0.3647141
39	0x3f009f38	0.5024295
40	0x3eb395cd	0.35075226
41	0x3f280478	0.6563182
42	0x3f34c357	0.70610565
43	0x3eeaa6fb	0.4583052
44	0x3e446c0f	0.19181846
45	0x3eada616	0.33915776
46	0x3ee3363f	0.44377324
47	0x3dc27058	0.09494084
48	0xbe89c173	-0.26905403
49	0x3f154a03	0.5831606
50	0xbea2d6d2	-0.3180452
51	0xbed73dda	-0.42039376
52	0xbd912253	-0.07086625
53	0x3f024ffc	0.50903296
54	0xbebdbece	-0.37059635
55	0x3f17d194	0.59304166
56	0x3edb40b8	0.42822814
57	0x3ebd416e	0.3696398
58	0x3ea2ffd4	0.31835806
59	0x3ee1510b	0.44007143
60	0x3f14e80c	0.58166575
61	0xbd93fd49	-0.07226045
62	0xbe2bca2e	-0.16776344
63	0x3eccd6fc	0.4000777
64	0xbed6453b	-0.41849694
65	0xbdaf5a4a	-0.08562143
66	0x3cd58703	0.026065355
67	0xbe889372	-0.26674992
68	0x3ed22445	0.41043296
69	0xbd68a719	-0.05679998
70	0x3e24977d	0.16073413
71	0x3cd0b449	0.025476592
72	0xbe22393f	-0.1584215
73	0xbeaab79a	-0.33343202
74	0x3e71888b	0.23587243
75	0xbe07ad5f	-0.1324973
76	0x3f044fdb	0.5168435
77	0x3e9e6730	0.309381
78	0x3ecea553	0.40360507
79	0xbe885223	-0.26625165
80	0xbe58adcb	-0.21160047
81	0xbe883a82	-0.26607138
82	0x3ebfef51	0.3748727
83	0x3ce447a2	0.027866188
84	0xbd06212d	-0.032746483
85	0xbe1d7559	-0.15376796
86	0x3da0e325	0.078558244
87	0x3e32980a	0.17440811
88	0xbea8fc31	-0.33004907
89	0x3e5fb3cd	0.21845932
90	0xbe21402b	-0.15747134
91	0x3eeb577c	0.45965183
92	0x3f012fe0	0.50463676
93	0x3ef0cc18	0.4703071
94	0x3e574e6e	0.21026012
95	0xbeadd0fe	-0.3394851
96	0xbdc2358c	-0.094828695
97	0x3e710b04	0.23539358
98	0x3f0983d5	0.53716785
99	0x3e8311ce	0.2559952
100	0xbe086032	-0.13317946
101	0xbd6080a0	-0.054810166
102	0x3ef47238	0.47743392
103	0x3e531d00	0.20616531
104	0x3dc6a6c3	0.09699776
105	0xbea6c913	-0.32575282
106	0x3e7e157b	0.24812882
107	0xbe66ab06	-0.22526178
108	0x3f2b3a1b	0.66885537
109	0x3ead998c	0.3390621
110	0x3ee06d4b	0.43833384
111	0xbd10ff8a	-0.03539995
112	0x3f132f43	0.5749399
113	0xbeedb117	-0.4642417
114	0x3d6271ee	0.055284433
115	0x3edff876	0.43744248
116	0xbe8849ee	-0.26618904
117	0xbc3c3d0d	-0.011489165
118	0x3f2a92f6	0.66630495
119	0x3ec196db	0.37810406
120	0x3c1a67c0	0.00942415
121	0x3da5dfc6	0.08099322
122	0x3e9af8e9	0.30268028
123	0x3e33d034	0.17559892
124	0xbdf4c65d	-0.11951897
125	0xbdcc4b34	-0.09975281
126	0x3ebceab3	0.3689781
127	0x3eca55c1	0.3951855
128	0x3ed35386	0.4127466
129	0x3e83bd48	0.25730348
130	0xbdfcaaa1	-0.123372324
131	0xbc61e677	-0.013787857
132	0xbe178ddb	-0.14800207
133	0x3e6c54bd	0.230792
134	0xbcd3877d	-0.025821442
135	0x3ef8daec	0.48604524
136	0xbe01c9d7	-0.12674652
137	0x3f0c3ff5	0.5478509
138	0xbe2052b2	-0.15656546
139	0xbd51fb92	-0.051265307
140	0x3d35132f	0.044207748
141	0x3eb06d63	0.34458455
142	0x3f0f2baf	0.5592603
143	0x3e90db91	0.28292516
144	0xbe05351f	-0.13008545
145	0x3ef26b1a	0.47347337
146	0x3ed0f6a6	0.40813178
147	0xbd66b89d	-0.056328405
148	0x3f2ea664	0.6822264
149	0x3f3142af	0.69242376
150	0x3f0a60a4	0.5405371
151	0xbe8eed7f	-0.2791557
152	0x3eddac90	0.43295717
153	0xbe85d75f	-0.26140878
154	0x3c5c3b09	0.013441809
155	0xbe76d165	-0.24103315
156	0x3acfe87f	0.0015862136
157	0x3e298a48	0.16556656
158	0xbe399698	-0.18123853
159	0xbe03b6a1	-0.12862636
160	0xba8bfb6f	-0.0010679791
161	0x3c482979	0.012216919
162	0x3ee4c3b4	0.4468056
163	0x3d33cbc5	0.0438955
164	0xbec90cc6	-0.39267558
165	0xbe9ecf44	-0.31017506
166	0xbe3f4107	-0.1867715
167	0x3e2e17a3	0.17001204
168	0xbd732d31	-0.05936927
169	0x3ea5dd74	0.32395518
170	0x3e6294e7	0.22127114
171	0xbe6934f5	-0.22774108
172	0xbd105c9b	-0.035244565
173	0x3dcbd817	0.09953325
174	0xbe45977b	-0.19296066
175	0xbedea5d4	-0.43485892
176	0xbe059f74	-0.13049108
177	0x3e9d6b0a	0.30745727
178	0xbed47bff	-0.41500852
179	0x3f08efa6	0.53490674
180	0xbf090257	-0.53519195
181	0xbe2b1e64	-0.16710812
182	0x3df66c77	0.12032407
183	0x3f1f98d2	0.6234256
184	0xbc71b8ed	-0.014753562
185	0xbda56d26	-0.08077459
186	0x3e55809f	0.20849846
187	0x3ef41cf2	0.47678334
188	0xbee4a3db	-0.44656262
189	0xbdb97f5e	-0.090574965
190	0xbe9f23a5	-0.31081882
191	0xbeb1e88e	-0.34747738
192	0x3d687860	0.056755424
193	0xbe6529de	-0.22379252
194	0xbdd7defb	-0.10540577
195	0x3d27af3f	0.040938612
196	0xbe94cad4	-0.29060996
197	0xbee013f3	-0.4376522
198	0x3e13e351	0.14442183
199	0xbe1ed1c0	-0.15509701
200	0x3e5b02a9	0.21387734
201	0x3bbe4e8a	0.0058077024
202	0x3ede2141	0.43384746
203	0xbe93f625	-0.2889873
204	0xbe45d4f0	-0.1931951
205	0xbe9fe0df	-0.3122625
206	0xbdcb8659	-0.09937734
207	0xbdbf03a8	-0.09326869
208	0xbeb1fb29	-0.34761932
209	0x3ea54d84	0.32285702
210	0xbeb1efe3	-0.34753332
211	0xbeb1faf1	-0.34761766
212	0xbebf898a	-0.3740962
213	0xbbff7749	-0.0077962023
214	0xbe4e40f8	-0.20141971
215	0xbe766238	-0.24060905
216	0x3f0a4123	0.5400564
217	0xbddd86e7	-0.10816746
218	0x3f091c23	0.5355856
219	0xbe5c9376	-0.21540627
220	0xbcffc36e	-0.031221118
221	0xbe741755	-0.23837025
222	0x3ea5e1d4	0.32398856
223	0x3e9130de	0.28357595
224	0xbe1e25fb	-0.15444176
225	0xbd273059	-0.040817592
226	0xbdfa998c	-0.12236318
227	0xbdad019d	-0.08447573
228	0xbe90660b	-0.28202853
229	0xbe1bd798	-0.15218961
230	0x3e1d4145	0.1535693
231	0xbe82dbc2	-0.25558287
232	0xbf3fe907	-0.74964947
233	0x3dfc0327	0.12305289
234	0x3e63a775	0.22231849
235	0xbe2ea028	-0.17053282
236	0x3eeb62ec	0.4597391
237	0x3f44bc61	0.76849943
238	0x3ea5893e	0.3233127
239	0xbd639774	-0.05556436
240	0x3f462a40	0.7740822
241	0xbeb1f5de	-0.34757894
242	0x3ed53c4f	0.41647574
243	0xbe60013d	-0.21875472
244	0x3d1a4356	0.037661873
245	0xbeb1f856	-0.34759778
246	0x3dfcc66d	0.12342534
247	0x3ea0b8d9	0.31391028
248	0xbe29c367	-0.16578446
249	0x3edcfecd	0.43163148
250	0xbef0d588	-0.4703791
251	0x3ec2ed29	0.38071564
252	0x3f167c1f	0.58783144
253	0xbf0e447d	-0.55573255
254	0xbe9b6cd4	-0.30356467
255	0xbe8fe918	-0.28107524

l1.bias f4 [8]
0	0x3f8a24bb	1.0792459
1	0x3e884d22	0.26621348
2	0x3f35ca5c	0.710119
3	0x3eb1f410	0.34756517
4	0x3f0e4b61	0.5558377
5	0x3f1bcb27	0.6085686
6	0x3eef924f	0.46791312
7	0x3eb46715	0.35234895

l2.weight f4 [8, 8]
0	0xbe0f4ea0	-0.13994837
1	0x3f8857f1	1.0651838
2	0xbf8d5b0f	-1.1043414
3	0x3f9f537f	1.2447356
4	0x3fbd2126	1.4775741
5	0x3f44578b	0.7669608
6	0x3f509a51	0.8148547
7	0x3efec173	0.49756965
8	0x3e688513	0.22707014
9	0xbf113da5	-0.5673469
10	0x3d875995	0.06608883
11	0x3e8ec51c	0.27884758
12	0xbf575af0	-0.84123135
13	0x3f934c2c	1.1507621
14	0x3f3449af	0.7042493
15	0xbe5adb4c	-0.21372718
16	0xbf3a2949	-0.72719246
17	0x3f66d22a	0.90164435
18	0x3dbc6a88	0.09200007
19	0x3f556260	0.83353233
20	0x3f12ef1a	0.5739609
21	0xbf0018a8	-0.5003762
22	0x3ed4a33b	0.41530785
23	0x3ec95ce1	0.39328673
24	0xbd17f424	-0.037098065
25	0x3f2ab0c6	0.66675985
26	0xbf16b81d	-0.58874685
27	0xbe39b20e	-0.18134329
28	0x3ea3b814	0.31976378
29	0x3f734019	0.9501968
30	0xbedd73a1	-0.4325228
31	0x3dce32a8	0.10068256
32	0x3f8a3393	1.0796989
33	0x3f415f75	0.7553628
34	0xbf02ca0f	-0.51089567
35	0xbd827b5d	-0.06371186
36	0xbfa46664	-1.2843747
37	0x3e578a1f	0.21048783
38	0xbf107dfa	-0.56442225
39	0x3f9c4629	1.2208911
40	0x3f8c81b3	1.0977081
41	0xbe69d5f5	-0.22835524
42	0x3f902d0c	1.1263747
43	0xbf7f6ffe	-0.9978026
44	0x3fbb1edd	1.4618794
45	0xbf8d1673	-1.1022476
46	0xbf1962ea	-0.59916556
47	0x3e2814b8	0.16414154
48	0x3ed68aef	0.41902873
49	0xbf21b403	-0.631653
50	0x3dea1a5a	0.114308074
51	0x3f83e361	1.0303766
52	0xbf6ef1d1	-0.9333773
53	0x3f8c6f0f	1.0971392
54	0x3f8afa9f	1.0857733
55	0xbeb5a836	-0.35479897
56	0x3f55c950	0.83510303
57	0x3eae3d8a	0.34031326
58	0x3f793fc3	0.9736292
59	0xbf895d66	-1.0731628
60	0x3fbf4ce2	1.4945338
61	0x3e3ac523	0.18239264
62	0xbf7f7555	-0.9978841
63	0xbf3fb6f9	-0.7488857

l2.bias f4 [8]
0	0x3dc78bd7	0.09743469
1	0x3f23bd4e	0.6396073
2	0x3b8ddcab	0.004329284
3	0xbec4753c	-0.38370693
4	0x3e8678f1	0.26264146
5	0x3f356d37	0.70869774
6	0x3ed4f189	0.41590527
7	0x3f65cf21	0.8976918

l3.weight f4 [7, 8]
0	0x3f166951	0.5875445
1	0xbf9dba58	-1.2322493
2	0x3f63efa9	0.8903757
3	0xbf3ab962	-0.7293912
4	0xbf17262e	-0.5904263
5	0xbefeae53	-0.49742374
6	0xbea751a2	-0.32679468
7	0xbf02207e	-0.5083083
8	0xbfca7702	-1.5817568
9	0x3f658a67	0.8966431
10	0xbf242621	-0.6412068
11	0xbef7a76b	-0.48369917
12	0xb9e8ec0e	-0.00044426363
13	0x3bad74e5	0.005293476
14	0x3f136799	0.5757995
15	0x3f0389c6	0.513821
16	0xbf48eb1c	-0.7848375
17	0xbf926b31	-1.1438962
18	0xbf45af5d	-0.7722071
19	0xbec794e3	-0.3898078
20	0xbf580709	-0.84385735
21	0x3f7a939e	0.97881496
22	0xbfa62c6f	-1.298231
23	0x3f7e64c7	0.99372524
24	0x3ef5eaff	0.4803085
25	0xbfa724da	-1.3058121
26	0xbedf0fb6	-0.43566674
27	0x3f140388	0.5781789
28	0x3e16d754	0.14730579
29	0xbd9b1e04	-0.075740844
30	0xbfe81da3	-1.8134044
31	0x3e9bd1c0	0.30433464
32	0xbf47c819	-0.780397
33	0xbf30f76c	-0.69127536
34	0xbf2cd005	-0.6750491
35	0xbf820a0c	-1.0159316
36	0x3f8a6dbd	1.081474
37	0x3f0f81f2	0.56057656
38	0xbf8145d2	-1.0099432
39	0xbe219c18	-0.15782201
40	0x3ea4111f	0.32044312
41	0xbe56d271	-0.20978715
42	0xbe737a60	-0.23777151
43	0x3f12e082	0.5737382
44	0x3f31b68b	0.69419163
45	0xbf46e241	-0.77688986
46	0xbeb74528	-0.3579495
47	0xbf7363f4	-0.9507439
48	0x3ea8f7ed	0.33001652
49	0x3f5f50e4	0.87232804
50	0xbed2d080	-0.41174698
51	0xbf43e41b	-0.76519936
52	0xbf9e9fd8	-1.239253
53	0xbedee8b4	-0.43536913
54	0x3f4fafd9	0.811277
55	0xbf92b11c	-1.14603

l3.bias f4 [7]
0	0xbe6cb811	-0.23117091
1	0xbdbce01a	-0.092224315
2	0x3e10f0a9	0.14154305
3	0xbf1fbbbd	-0.6239584
4	0xbec7764b	-0.38957438
5	0xbee28b3c	-0.44246852
6	0x3e69686b	0.22793739
