src/hehe-chan-ai/data.pth (torch, 5311 bytes, 6 tensors)

l1.weight f4 [8, 62]
00000000: 3b89 ad3e 3218 09be 98b2 fbbe 3bcd d63d
00000010: b481 693e 1b22 eabe 6be4 0cbe 9ffd 49be
00000020: 7be6 c1be 169e fd3d 4117 94be c58a 22bf
00000030: f585 9e3d 92f4 b53e bba0 cc3e 24ef 853e
00000040: 2138 763c 147a a8be 5f8a 5a3d 39fb afbe
00000050: b061 f43e 0baf 7b3e 2aae 093e 7927 c73e
00000060: b7a7 6c3e 465a 863e ac52 683e a53d 2abe
00000070: 254e 853e e83d fd3e c21a 8cbe cf01 973e
00000080: a555 29be 3316 f8bd 2e01 94bd a5c1 d2be
00000090: bb6a 40be 4e2c 753e 00cb cf3e 1579 6cbe
000000a0: a6da 0b3e 29d2 bbbe 8df6 e5be 38c5 2dbd
000000b0: de72 873e 61c4 f8bd 83ce 663f 5e6f bf3e
000000c0: 8410 dabd c913 70be fdd4 65bd 8a08 023f
000000d0: 5172 4b3e 4751 003f a042 f73e cae4 3d3e
000000e0: 6b5e ee3e 203f ed3e 6b58 1e3e bbed 823e
000000f0: 4654 503e d13b 033e d011 903e afb9 91bc
00000100: 8d2c 4cbe 5f98 9e3e db82 463e 0104 2f3f
00000110: 52ea 9bbe a74c 06be 18ce a0be a33f bd3e
00000120: 44e3 59bd c803 8a3c 4433 e6bd 37b4 773c
00000130: 78f9 46be 0c1a 8dbc 363e 2dbd 0dc4 4e3f
00000140: 0067 e03e 0c8d 3a3f c2c9 423d 5b0e 833e
00000150: a053 e2bd 69d8 8b3e 1cce f03b ce87 b13e
00000160: 81ab 783e 69cc 4abe 5fb6 963e 10b3 533b
00000170: ffbd 17be 78af 6cbe 5a7a d53a bacc 183f
00000180: 33ee e7bc 82af 2cbe 09e3 aebe 10bc 01be
00000190: c18a 2abe 1f6a 0b3f e859 02be 6050 e2be
000001a0: 63d5 9abe d4d3 f0bd e84f 69bc 888e 0c3f
000001b0: 30df 663f f85d 25bc e300 37be a02c 3cbe
000001c0: 032a 12be 99e3 9a3e f6a7 243e c5ed 9b3e
000001d0: c4c0 3b3e 6640 713e 9b51 bcbe 76c6 133e
000001e0: b9ec b13d bd55 2e3e 99a5 b4bd 92cb 183b
000001f0: 6ec9 653e 184a d3bc 9ea8 243f 9565 b23e
00000200: 0c32 ed3e 9c24 1bbf 1216 b23c 134a 663e
00000210: b644 f4bd 87d1 b53e 508b 5d3e cc74 173f
00000220: 6446 edbd d911 0d3f e140 20be d270 84bd
00000230: 89d0 44be e21b 1bbf 3bb3 523e 0f1f 1bbf
00000240: 52ab c53d dc56 d03e ebe8 3c3f 2d96 9f3e
00000250: 6e06 163f 1841 3e3f a002 333f a270 1b3c
00000260: 9aa4 013f 3422 34be 61ed 78be cdde 37be
00000270: 4910 b5bd 705b 8cbe e743 523e 96b0 c13e
00000280: ad58 15be 39d7 6ebe 67c0 ee3e 8dcd 45bf
00000290: 31bc 8dbe 6dfc 08be 60d5 833d b83f 943e
000002a0: 7dc2 1fbe c5d9 74be dbac b83e be87 bbbc
000002b0: f63c 84bd 861b bb3e 0d5e 50be eba8 d03e
000002c0: 513a 7f3e e544 173e 52bc 793e 1f46 373f
000002d0: c497 b6be 7006 bbbb fc24 653e 1495 483f
000002e0: 79ec bdbd b76c 06be ab37 40be 6e0f 0abd
000002f0: b89b 053f 4e0f 6ebe 449a 6abd 4edc d3be
00000300: 7260 483f dfcc b03e f015 173f 59c3 763c
00000310: 8317 973e 1293 9f3e 00b2 bb3e f8b2 12be
00000320: 5ad5 363f 8c95 003f c8ca b9bc c829 30be
00000330: ba7f 8abe 5812 d2be 161b 80bd a92a 9fbd
00000340: 3bea c2be 0296 cabd 0cd2 b7be 02e3 babe
00000350: 2c43 aabe 5c3b 103f 77bb 42be ec9b 5cbd
00000360: cd3f 10bd 4faf f23b 9bf1 24be 2c82 80be
00000370: 004d 643c bc6d 273f d05d b83e fb40 ea3e
00000380: 0231 20be 7985 13be 71ae e73d 0ee0 233f
00000390: 04bd d23e 6dfc 7f3e 297a 373f d957 aabe
000003a0: 12d4 39bf d345 143f a773 4e3e 54b4 df3e
000003b0: 5ee2 b63e a9eb f4be f414 9bbd 8890 613d
000003c0: df22 d6bd 1f1d a9be 8411 4c3f fcbc 62be
000003d0: 7839 053f 2f15 b3be 54ad 303f 3bb4 0e3f
000003e0: 3d76 70be b782 363f 0aad fb3d 0606 bc3e
000003f0: 5586 e33d cb20 233f f433 493e 253a a3bb
0.3389376 -0.13388136 -0.49159694 0.10488363 0.22803384 -0.45729145 -0.1375901 -0.19725655
-0.37871155 0.12383668 -0.2892399 -0.63492996 0.07740394 0.35538155 0.39966378 0.26159012
0.015028031 -0.32905638 0.053354617 -0.34371355 0.4773078 0.24578492 0.13445345 0.38897303
0.23110853 0.26240748 0.22687787 -0.16625078 0.26036182 0.49461293 -0.27364165 0.29493567
-0.16536577 -0.12113609 -0.072267875 -0.41163364 -0.18790714 0.23942682 0.40584564 -0.23093064
0.13657627 -0.36683777 -0.44914666 -0.04242441 0.26454824 -0.12146831 0.9015886 0.37389654
-0.10647681 -0.23445047 -0.056111325 0.5079428 0.19867827 0.5012402 0.48293018 0.18544307
0.4655641 0.46337223 0.15463416 0.25572 0.20344648 0.12815787 0.2813859 -0.017788736
-0.1993887 0.30975625 0.19385855 0.68365484 -0.3045221 -0.13115178 -0.31407237 0.36962613
-0.053195253 0.016847506 -0.11240247 0.01511865 -0.19431102 -0.017224334 -0.042295657 0.807679
0.43828583 0.7287147 0.047555692 0.2559689 -0.110511065 0.27313545 0.007348789 0.34673923
0.24284174 -0.19804539 0.29436013 0.0032302774 -0.14818572 -0.23113811 0.0016287074 0.5968739
-0.028311824 -0.16863826 -0.3415759 -0.12669396 -0.16654493 0.544588 -0.12729609 -0.44201946
-0.30240926 -0.11759153 -0.014240243 0.54904985 0.9018431 -0.010093205 -0.17871432 -0.18376398
-0.14273839 0.30251768 0.16079697 0.3045484 0.18335253 0.23559722 -0.3678101 0.14431176
0.086877294 0.17024894 -0.08820648 0.0023314697 0.2244012 -0.025792167 0.6431979 0.34843126
0.46327245 -0.60602736 0.02173904 0.22489195 -0.11927168 0.3551142 0.21635175 0.5916259
-0.115856916 0.5510536 -0.1564975 -0.06466831 -0.19220175 -0.6058942 0.20576183 -0.60594267
0.096518174 0.40691268 0.73792905 0.31169263 0.5860356 0.74318075 0.6992588 0.009487303
0.5064179 -0.17591172 -0.24309303 -0.17956086 -0.08840997 -0.2741351 0.20533715 0.37830037
-0.14584608 -0.23324288 0.46631166 -0.7726677 -0.2768264 -0.13377543 0.064371824 0.28954864
-0.15601535 -0.23911197 0.36069378 -0.022891875 -0.0645694 0.36544436 -0.20348378 0.40753874
0.2492459 0.14772375 0.24388245 0.7159137 -0.35662663 -0.0057075545 0.2237739 0.78352475
-0.09273619 -0.13127409 -0.18771236 -0.03370612 0.5219073 -0.23248026 -0.057276025 -0.41379017
0.78272164 0.34531304 0.5901785 0.015061223 0.29510126 0.31166893 0.3665924 -0.14326084
0.714193 0.5022819 -0.022679701 -0.17203438 -0.27050573 -0.4102962 -0.06255166 -0.07771809
-0.3806933 -0.09891893 -0.3590244 -0.36501318 -0.33254373 0.56340575 -0.19016825 -0.053859636
-0.035217095 0.0074061523 -0.1610779 -0.25099313 0.013934374 0.65401816 0.36009073 0.457527
-0.15643695 -0.14406385 0.11312569 0.64013755 0.41159832 0.24998637 0.71670777 -0.33270147
-0.7258922 0.57919043 0.20161305 0.43692267 0.3571958 -0.47836044 -0.07572356 0.055069476
-0.1045587 -0.3303003 0.79714227 -0.22142404 0.52040815 -0.349771 0.6901448 0.5574376
-0.23482604 0.71293205 0.12288864 0.36723346 0.11109606 0.63721913 0.19648725 -0.0049812966

l1.bias f4 [8]
00000000: 0f33 043f ff74 263f ec1f 1b3f 63dc d33e
00000010: 58e2 333f 00af 4e3f 877e 873f a0d3 253f
0.5164041 0.6502227 0.60595584 0.4137908 0.7026725 0.8073578 1.0585488 0.6477604

l2.weight f4 [8, 8]
00000000: 6d9a 943f 96a3 9f3f d6c1 753f 443d 87bf
00000010: f3fb 4f3f d2bb 313f 3f7a 813f 5bc5 743f
00000020: af31 b8be b691 1bbf b84e 8e3f ae63 8f3c
00000030: 7391 be3e e74c 803f 5ec8 cabe 1e33 a93e
00000040: f137 033f 1dd5 90bf 14b1 21bf a0f3 8c3f
00000050: b38c ae3f 2f55 09bb 1894 d2be d67f 28bf
00000060: d7ef bbbe d541 c7bd f6fc 9a3f da04 933e
00000070: dece 94be d2ee 473f 1ff3 863f 5804 da3e
00000080: fbac 353e e6e0 c7bd b1a5 c5be 0528 63be
00000090: 145c 0abe 8645 2fbe 9069 a1bd 8bfe 403e
000000a0: cbd0 45bf e947 c73d 40fa 8dbf 7452 273f
000000b0: e2ad 3a3f b17e 7c3f d1a7 2c3f c25b 7cbf
000000c0: 4460 fabe f29b 3d3f b6b8 013e 32d4 0fbf
000000d0: 949f da3f 2a2c a83f 818e f7be f002 f1bb
000000e0: 3f4a afbf 0a64 0d3e a8be 52bf c2dc 5e3d
000000f0: a066 a33f eb17 4c3f d53b 643c ad50 1dbf
1.1609627 1.2471797 0.95998895 -1.0565572 0.8124382 0.69427216 1.0115432 0.9561364
-0.35975406 -0.6076921 1.1117773 0.017503586 0.37220344 1.0023469 -0.39605993 0.33046812
0.51257235 -1.1315037 -0.63160825 1.1011848 1.3636688 -0.0020955314 -0.41128612 -0.6582006
-0.3670642 -0.09729353 1.2108448 0.2871464 -0.29064077 0.78098786 1.0542945 0.4258144
0.17741768 -0.09759693 -0.38602975 -0.22183235 -0.13511688 -0.17116365 -0.078814626 0.188471
-0.7727172 0.09730513 -1.1091995 0.6536019 0.72921574 0.98630816 0.6744357 -0.9857751
-0.4890157 0.7406608 0.12668118 -0.5618316 1.7079949 1.3138478 -0.4835091 -0.0073550865
-1.3694533 0.13807693 -0.8232217 0.05440975 1.2765694 0.79723996 0.013930281 -0.61451226

l2.bias f4 [8]
00000000: 6e77 f83e 71d0 cdbd 988b 1b3f 13e8 0abe
00000010: fb02 d0bd 270b 013f 3588 603e b7f7 393d
0.48528618 -0.10049523 0.6075988 -0.13565092 -0.101568185 0.5040764 0.21926959 0.045402255

l3.weight f4 [7, 8]
00000000: 5df8 72bf 1455 a93e 8812 ab3d c383 bebf
00000010: 80e6 6e3d f7ed 073e 4b9a 013f 57c5 0d3f
00000020: 1865 df3d 9554 a9bf 9565 d0bf 12df 08bf
00000030: fbfb 58bd 2df9 303f 2188 083f 05a6 0e3f
00000040: 4c0d 943e d7a8 bc3f e5e5 acbf ee8e ab3c
00000050: 12f6 63be 72e5 30bf 2d19 db3e 2541 b6bf
00000060: e6f7 1f3f a5da 39bf 580f 4b3e b98b febf
00000070: f466 6abe 8114 8bbf ee37 cbbd 478d 3ebf
00000080: b3e3 a3bf 8705 4d3f cde3 9ebe c1f4 9e3f
00000090: 5052 2bbe da41 5d3e d68d 62bd a3d5 253e
000000a0: c8e1 b0bf 1f3b a6bf db0d 953f a319 3dbf
000000b0: 9ee4 70be c193 033f f85c 19bf ab37 2dbf
000000c0: df38 473f 25c9 f5bf 69f6 b5bf 742f 713f
000000d0: f561 47be 66e7 77bf 85d4 bbbf ff75 4cbf
-0.9491022 0.33072722 0.08353144 -1.488396 0.05832529 0.1327437 0.5062606 0.5537924
0.10907954 -1.3228937 -1.6281 -0.5346538 -0.052974682 0.6913021 0.53332716 0.55722076
0.28916395 1.4739026 -1.3507658 0.020942178 -0.22261837 -0.69100106 0.42792645 -1.423863
0.6248764 -0.7259925 0.19830072 -1.988639 -0.22890836 -1.0865632 -0.09922777 -0.7443432
-1.2803863 0.8008656 -0.31033173 1.2418443 -0.16730618 0.21607152 -0.055311047 0.16194777
-1.3818903 -1.2986792 1.1644853 -0.73867244 -0.2352471 0.5139733 -0.59907484 -0.6766307
0.77821153 -1.920201 -1.4215823 0.9421303 -0.19470961 -0.9683746 -1.4674231 -0.7986755

l3.bias f4 [7]
00000000: 0a59 e4bd 980f b5bd df63 83be 8228 643f
00000010: f42a b43b bba5 3c3e fa8f f63d
-0.11149795 -0.08840865 -0.25662133 0.8912431 0.0054982845 0.18422596 0.1203918
