src/hehe-chan-ai/data.pth (torch, 5311 bytes, 6 tensors)

l1.weight f4 [8, 62]
000000 50 a7 e6 3e 0d 31 cc 3d a4 e9 12 3f 40 bf 95 3d
       0.45049524 0.09970293 0.5738776 0.07311869
000010 48 1a e2 3d 21 0d 07 bf 91 a0 7a 3e 2a ee c5 3e
       0.11040169 -0.5275441 0.24475314 0.38658267
000020 4f 2c c1 3e c6 82 a4 3c 0e a1 93 3e c0 ea 14 3f
       0.37729117 0.020081889 0.28833812 0.581707
000030 48 ef 32 3e 72 5e 97 3e 6c 21 32 3d 97 38 5a 3e
       0.17474091 0.29564244 0.043488905 0.2131065
000040 30 cd 87 ba 09 08 07 bf 54 4b ac bd 65 0a 07 bf
       -0.0010360833 -0.52746636 -0.08412805 -0.52750236
000050 a5 a7 c8 be d1 93 8a 3a 5c 9b 49 3d 12 b0 b3 3e
       -0.39190403 0.0010572617 0.049220428 0.35095268
000060 c8 83 9c bd 01 76 f3 bc 3a 5d 9c 3d e5 4f c3 3e
       -0.07642323 -0.029719355 0.07634969 0.38146892
000070 44 70 76 3e 32 d4 8c be c3 53 bf be 66 65 72 be
       0.24066263 -0.27505642 -0.37368593 -0.23671493
000080 08 3e 96 be 05 05 0c bf 3c 8f 97 3e 43 2a fc 3e
       -0.293442 -0.5469516 0.29601467 0.49250993
000090 ea ac 23 3c 90 ed d8 bc 47 76 9e 3e 41 e4 e1 be
       0.009989956 -0.026480466 0.30949613 -0.44119456
0000a0 39 1e fc bd 1a 66 05 3f da 74 dc 3e 08 f6 d4 3e
       -0.12310452 0.5210892 0.430579 0.41593957
0000b0 e0 00 96 bd 7f 9d a5 be 06 d9 69 bf dd 50 5c be
       -0.07324386 -0.32346722 -0.91346776 -0.21515222
0000c0 26 3d 80 bd 02 32 fc 3e 79 5e aa bd ca ac 1b 3f
       -0.06261663 0.49256903 -0.083188005 0.6081053
0000d0 7b 63 b8 3e 7b 0c 43 3c a2 1b 30 3f 78 8b 00 3e
       0.36013398 0.011904831 0.68792164 0.12553203
0000e0 f1 ba 6f bc ec b6 85 be 24 61 87 3e 4a 6d b0 bd
       -0.014631973 -0.2611612 0.264413 -0.08614595
0000f0 1f cd b6 3e e4 0b 6a be 5e d0 e4 3e a7 1b ab 3d
       0.3570337 -0.22856098 0.44690222 0.08354884
000100 e2 b2 19 3f 04 5c ff 3e c6 ef 22 3f ab 07 ea be
       0.6003858 0.4987489 0.63647115 -0.45708975
000110 e6 50 5a 3e d8 1f f9 3e ca 62 df 3e d9 4b 68 3e
       0.21319923 0.48657107 0.43630058 0.22685184
000120 87 25 fc 3e bf 58 db 3e b3 f1 87 bd 6f e3 50 3e
       0.4924738 0.42841145 -0.06637897 0.20399259
000130 7c c5 d4 3d f9 9d 79 bd 7e 5c 07 be 86 06 ea be
       0.1038923 -0.06094167 -0.13218877 -0.45708102
000140 58 59 d7 bb b9 fd e9 be 5c 43 44 be 91 e2 61 3e
       -0.00657193 -0.45701388 -0.1916632 0.22059084
000150 af 6d 0a 3f 3d d1 ae 3e 72 5c 34 3f 4e 15 11 3f
       0.54073614 0.3414401 0.7045356 0.56673133
000160 68 ea 3d 3f e8 71 ee 3e c5 38 83 3e b7 72 d9 be
       0.741858 0.4657128 0.2562925 -0.42470333
000170 29 da ba be 1a 72 43 be 3f fd 92 be 07 71 f3 be
       -0.36494568 -0.19086495 -0.28708836 -0.4754717
000180 9a c2 b2 3e e5 7a 03 3f 58 4e 91 bc 97 0b 77 be
       0.34914094 0.513594 -0.017737553 -0.24125515
000190 9a 53 f7 3e 9e 44 dd be fd 6c 69 be c9 a2 b4 3e
       0.4830597 -0.43216413 -0.22795482 0.35280445
0001a0 c6 d8 06 3f e6 96 e6 3e 81 bd d3 bc 6b 87 98 be
       0.5267452 0.45037 -0.025847198 -0.29790816
0001b0 3f 8c 26 bf 3e b0 d3 bd a2 0d 29 be bb e1 c0 3e
       -0.6505775 -0.1033635 -0.16509107 0.3767222
0001c0 52 ba 11 be c6 d1 04 3f 1b 1d bf 3e 29 c9 8b 3c
       -0.14231232 0.5188259 0.37326893 0.017063694
0001d0 11 63 10 3f e8 c0 0a 3f 7b e7 7c be d0 f2 8f be
       0.56401163 0.542006 -0.24697678 -0.2811494
0001e0 34 d4 ab 3e 39 ac 1e 3f fa 17 ac 3e 33 df bc bd
       0.33560336 0.6198154 0.33612043 -0.09222259
0001f0 fe 42 27 be b8 10 b7 bd 5c 55 e2 be 3b 96 b0 3e
       -0.16334149 -0.08938736 -0.4420575 0.34489617
000200 ad d3 42 be e0 fd c1 be 01 5c 30 3e a3 4a f7 bd
       -0.1902606 -0.37889004 0.17222597 -0.12074783
000210 ab 22 08 be db 20 b8 3e a9 7d 43 be 8c e4 ea be
       -0.13294475 0.35962567 -0.19090904 -0.45877492
000220 aa bd 91 3e f7 cf 93 3e e6 45 56 3e a1 f9 71 3e
       0.28465015 0.28869602 0.20925102 0.23630382
000230 75 03 15 be f8 20 b5 be 4d cf 99 3e ef 46 bb be
       -0.145521 -0.35376716 0.3004097 -0.36577556
000240 36 10 a7 3d 1d d2 35 3e 30 e4 df 3e 54 cd 03 be
       0.08157389 0.17755933 0.4372878 -0.12871295
000250 b6 e8 cf 3e 52 1d 18 3f 67 43 79 3d c2 97 14 3d
       0.40607232 0.5941974 0.060855296 0.03627754
000260 37 f5 89 3e c7 45 fe 3c 98 7d 4a be dc 7e fe bd
       0.26944897 0.031039132 -0.19774473 -0.1242654
000270 4a 82 cc be 7c 08 63 be 10 3e 98 bd 5f 35 dd bd
       -0.39943153 -0.22171205 -0.074337125 -0.10801195
000280 00 d5 b6 bd b2 23 d7 3e d8 9f cd 3e dd e0 ef be
       -0.08927345 0.4201942 0.40161014 -0.46851245
000290 5b 20 cb bc b4 68 d8 bd fd 86 df be b9 69 1b be
       -0.024795702 -0.105668455 -0.43657675 -0.15177049
0002a0 4f aa dc 3e bb d6 34 bd b2 93 5e bf 58 ea bc 3e
       0.43098685 -0.044150095 -0.86944115 0.3689754
0002b0 d4 6a c7 bd 19 fc 11 be 6d 46 10 be 56 43 f4 be
       -0.09737173 -0.14256324 -0.14089365 -0.47707623
0002c0 b6 64 36 be f1 88 c3 3e 4a 8e f1 be 06 b1 f4 3e
       -0.17811856 0.38190416 -0.4717887 0.47791308
0002d0 4f a1 02 3f 03 99 2b 3c 80 01 88 3d 0a dd 18 3f
       0.5102739 0.010473493 0.06640911 0.5971228
0002e0 a7 56 b1 3b af a1 ac 3e 1d be f8 3e 86 c1 2f 3d
       0.005411941 0.33717105 0.48582545 0.042909168
0002f0 18 a0 06 bf 77 7c aa 3d b5 4c 9f 3e 64 e9 3e bd
       -0.52588034 0.08324521 0.3111321 -0.046609297
000300 0c 9a 4d 3d 49 e5 58 be 67 a0 e0 be b4 33 ad 3e
       0.05019574 -0.21181215 -0.43872377 0.3382851
000310 ad 76 c9 be 53 47 10 bf 6e fb d5 3e 41 1b 3c 3e
       -0.39348355 -0.5635883 0.41793388 0.18369772
000320 35 a5 83 3e 60 d8 c2 3e a5 82 b0 3d 66 60 1d be
       0.2571198 0.38055706 0.086186685 -0.15368804
000330 62 e3 21 3e 8f ab 0f 3d 43 d4 c4 be 36 c9 e2 3e
       0.15809396 0.03507572 -0.38443193 0.44294137
000340 df 1a 98 3e 30 12 d6 3e d5 d5 91 3e 4d e8 21 3f
       0.29708 0.4181075 0.28483453 0.6324509
000350 d8 e2 d6 3e f6 e4 0c be 46 6e a6 3d c0 d1 09 bf
       0.41969943 -0.13759217 0.08126502 -0.5383568
000360 89 2a 71 be 4c 6a a6 be ab 1e 81 be 04 ee 0e be
       -0.23551382 -0.32502973 -0.2521871 -0.13957983
000370 be 31 ac 3e b9 bf f8 be 23 e8 53 be 62 49 26 3e
       0.336317 -0.48583773 -0.20694022 0.16238931
000380 8e 6e 13 3e f8 bb 4f be 95 d7 f2 be cb 4d 26 bf
       0.14397642 -0.20286548 -0.474301 -0.6496245
000390 4f 5b 29 bf 2b 99 47 be 84 85 fa 3e ce 89 29 39
       -0.6615495 -0.19492023 0.4892999 0.00016168432
0003a0 2b f6 55 bf 76 c7 bc 3e 75 5e f9 3d 52 8d 73 be
       -0.8357875 0.36870927 0.121762194 -0.23784378
0003b0 07 b3 0f be 4e 01 7d 3f ca aa dd 3e 59 c6 39 bd
       -0.14033137 0.98830116 0.43294364 -0.045355175
0003c0 35 c1 3a 3f 4c a6 a2 3e 1a 24 b7 3e ac 02 95 be
       0.7295106 0.317675 0.3576973 -0.291036
0003d0 70 a9 a7 3e 15 aa 05 3f 25 0c 78 3e b0 10 8f 3e
       0.32746458 0.5221265 0.24223383 0.2794242
0003e0 62 f2 5c bc be 4e a3 bd b5 55 e7 be d8 18 cc 3e
       -0.013485523 -0.07974003 -0.45182577 0.39862704
0003f0 c1 49 e1 3e 9f bc 4b 3f 52 23 10 bf a1 15 d2 be
       0.44001582 0.7958469 -0.56303895 -0.41032127

l1.bias f4 [8]
000000 20 06 07 3f f6 ff e9 3e d3 8b f1 3e 8d c7 36 3f
       0.5274372 0.45703095 0.4717699 0.7139824
000010 9b d7 6f 3f 38 7a 10 3f 3d b9 e0 3e 09 3d 4e 3f
       0.9368836 0.5643649 0.43891326 0.8056188

l2.weight f4 [8, 8]
000000 bf b1 cd 3e 1f eb 28 3f 8b d5 81 3f ed 4d d5 3f
       0.40174672 0.65983766 1.0143293 1.6664406
000010 8a 35 73 3f 2f 22 92 bf 6a 5f 52 3e 32 e3 1f 3f
       0.9500357 -1.1416682 0.2054421 0.6245605
000020 dd fc bd 3e 17 62 5a 3f 69 1e 7a 3f 72 e0 00 3f
       0.37106982 0.85305923 0.9770265 0.50342476
000030 04 e0 d9 be 5e 2a 4b 3f 4e ac d4 3f d6 be 5c bf
       -0.42553723 0.7936152 1.6615083 -0.8622869
000040 80 e0 e6 be a6 a4 b3 3d 5e 8d 4f 3f d1 12 5c 3e
       -0.45093155 0.087716386 0.81075084 0.21491553
000050 a5 ca 82 3f c8 28 e1 3c ed ae c5 3f e8 74 ae be
       1.0218092 0.027485266 1.5444008 -0.34073567
000060 eb 5e 8b bf 73 93 9b bf ad 9e 75 be 82 e8 17 3e
       -1.0888342 -1.2154373 -0.23986311 0.14834788
000070 e2 33 92 3f e8 00 9c 3f df be f5 be 7b 29 14 3f
       1.1422083 1.2187777 -0.47997186 0.57875794
000080 a9 bd 94 3e 3a 54 bd be d3 75 6f 3f 8c d7 32 3f
       0.2905095 -0.36978322 0.9353916 0.6986015
000090 4b 15 62 bf b3 ff 82 3f 4b 06 11 bd c3 e8 19 bf
       -0.8831374 1.0234283 -0.035406392 -0.6012079
0000a0 6f 0f 99 3f c0 94 95 3f d0 29 9c bf cb f4 7a 3e
       1.1957835 1.168602 -1.220026 0.24507444
0000b0 2a 7d 2d bf 43 e3 1f 3e 3e 07 83 bf 71 e6 54 3f
       -0.6776911 0.15614037 -1.0236585 0.83164126
0000c0 1f f5 8f bf ca f9 9b bf f5 b9 4a bf a7 db 8c be
       -1.124668 -1.2185605 -0.7919 -0.2751133
0000d0 b0 90 c7 3f 0f 7f 09 3f 65 00 59 3e de f4 59 bf
       1.559103 0.537095 0.21191557 -0.8513926
0000e0 8f 96 8c 3d d5 e5 9f bc c6 90 5a bd 85 ea af be
       0.06864654 -0.019518772 -0.053360723 -0.34358612
0000f0 58 51 fc 3d 2c eb d3 bc 74 ed 8d be 9f 17 30 be
       0.123202026 -0.025868975 -0.27720225 -0.1719651

l2.bias f4 [8]
000000 b2 6e 30 3f 38 f5 7f bd 72 ec a1 3c af 7f 0e 3f
       0.6891891 -0.06248972 0.019766066 0.5566358
000010 d3 cb 88 3e 91 f5 d7 3e a1 48 34 3f 6c e7 33 be
       0.26718006 0.4217954 0.7042332 -0.17568749

l3.weight f4 [7, 8]
000000 6e 42 67 bf 25 6b 7e bf aa 0f 84 bf 41 7f 85 3f
       -0.9033574 -0.9938224 -1.031728 1.042946
000010 ff 30 34 3d f4 5c 37 3e cc 14 3f bf ac ca ac be
       0.04399204 0.17906553 -0.7464111 -0.33748376
000020 38 be 05 3e 12 68 e9 bf 7d a8 a4 3e 40 08 09 3f
       0.13060844 -1.8234885 0.32159796 0.53528214
000030 11 37 33 bf ca 81 5e bf 8b a9 84 3f fa bf 90 3c
       -0.700059 -0.8691679 1.036424 0.017669667
000040 25 8b 1b 3f 5d 43 5f 3e f7 99 5a 3f 9a 93 6b bf
       0.6075919 0.21803041 0.8539118 -0.920221
000050 93 79 b3 bf 94 5d 49 bf 16 0b 2b bf 3e 82 e6 3d
       -1.4021477 -0.78658414 -0.6681379 0.112553105
000060 ca fb a1 bf 84 90 37 be 51 41 0c 3f fe 6e 13 3e
       -1.2654965 -0.17926222 0.54787165 0.14397809
000070 3c dc fe ba a7 0d 43 bf b9 8e 09 3f 12 ac 13 be
       -0.0019444297 -0.76192707 0.537334 -0.14421108
000080 95 98 12 bf 0a de da 3e 34 87 74 bf ba 92 7a bf
       -0.5726407 0.42747527 -0.95518804 -0.97880137
000090 2a 0e 3a 3d 2f 6a 50 3f 4e 60 e5 be dc af 1a be
       0.045423664 0.81412023 -0.44800037 -0.15106148
0000a0 e9 25 33 be b3 e9 e6 3e e0 e8 01 bf 07 0c 17 be
       -0.1749493 0.45100173 -0.50745964 -0.14750682
0000b0 fa bb 60 3f c3 ae be bf f8 70 05 bf 1c 9b 18 3e
       0.8778683 -1.4897083 -0.521255 0.1490292
0000c0 e2 16 45 3f e4 0f 15 bf 70 a7 93 bf 2b a1 76 bf
       0.7698804 -0.5822737 -1.1535473 -0.9633967
0000d0 02 75 ad bf a3 d4 4e 3f e0 0d c3 be db 4b 3b 3e
       -1.3551333 0.8079321 -0.38096523 0.18290655

l3.bias f4 [7]
000000 5d 9a b6 bd 54 1d f3 3e ad 81 a4 3e f6 9c a5 be
       -0.08916161 0.47483313 0.32130185 -0.32346314
000010 e7 1b 65 3e 04 b3 a2 be 19 ae eb bd
       0.22373925 -0.31777203 -0.11507816
