src/hehe-chan-ai/data.pth (torch, 5311 bytes, 6 tensors)

l1.weight f4 [8, 62]
00000000: 8d6b cc3c 7db8 323f 5724 923e 1654 e43e
00000010: 59ff 98bd 45d3 a5be 6b89 bf3e 66c7 553e
00000020: 462c 733d f2ba d13d f5e3 7d3d 9af3 283f
00000030: f58e c73e b45d be3e b764 513e 8778 a53e
00000040: cc8b 3e3f 1f4d c5be 5af2 053e 7fd1 b5be
00000050: 2c07 63be 9fbd 343e 4107 df3e 4699 70bd
00000060: d264 003f 11b4 2f3f 08da 043e 6bf0 433d
00000070: c9fb e33e 85ec 46be decf 413f fce3 01bc
00000080: 9bb4 5c3f faea 51be b2fe 2cbf 9eca 0ebe
00000090: 6b99 093f 0655 1c3e 0e0e cc3e cfd6 d4be
000000a0: e92a 09be d2bd 333d 5859 a8be 7fd6 83bd
000000b0: 0a9b a33e 443d 58be d130 46bf 8f35 d53e
000000c0: 79e6 433f 54fd 693d dda3 fa3e 7602 ddbe
000000d0: 68f9 3abe 3456 10be 1386 72be dcc5 c63e
000000e0: d366 1d3e f54b 47be 7e22 643e 9959 143f
000000f0: 2e7d 83bc 1bad 573e ad77 01be 68a0 1c3f
00000100: 5802 423f 648e 46be 8465 1fbe 375d 063f
00000110: 469e a63e 30a8 9d3e 7967 1b3f 528c aabc
00000120: 44d2 b43e dd14 2e3f 54ce ddbd 10bb f0be
00000130: 90d4 ab3d 3be2 10be f71c 113f 7e8b 283f
00000140: e4e9 173e 2e2d 1e3f f440 08be cd25 5abd
00000150: 3790 b0be 1286 27be 5695 b0be b25c a0be
00000160: 8583 d1be a30b ba3e 3308 00be 2849 103e
00000170: 7c41 1e3f dd4a 7c3e 450a 173f 3b25 5f3e
00000180: 6448 1fbe 0ca0 d63e df5d 583f 4b06 ffbe
00000190: a3a0 e2be eb1d 073f 898c b63e ed3e ec3e
000001a0: cf99 233f 8848 9c3e a79c 9fbe 3389 643e
000001b0: a997 0cbf 7397 78be 5cb8 103f 7f14 d33e
000001c0: 78e3 383f 3f32 18bf d299 60bd 55ee da3b
000001d0: bf8c b0be edbd adbe 8c60 40be 2270 f4bd
000001e0: ab88 223e 2489 b0be 348a 9e3e a8b4 c4be
000001f0: 9fd2 3dbe d7dd 68be c5f8 863e 91d5 64bd
00000200: f783 9bbe bb45 0e3f c9d0 183f 46f9 b23e
00000210: c65a 0f3f f649 efbd 8f1d 8f3e 0c71 293e
00000220: b2fc d83e 2f27 bfbe 45e4 783e a786 8f3e
00000230: 7082 c0bd e921 e63e e757 4a3e 7809 d73e
00000240: ce56 65be de5e 74bd ffa7 54be 5c4d c73b
00000250: 8ed7 6fbe d605 40be ce47 92be 07cb 0d3f
00000260: 33aa 4dbd 9733 b1be 6ba1 60be d9b0 f2bd
00000270: d5f5 81be c633 0c3e 1cfa be3d 3c06 9a3e
00000280: e90f 0e3c 78d8 8d3e de56 babe 989a e93e
00000290: 9cd1 403d dfdf 173f 2b37 0a3f 2094 313e
000002a0: 2978 ee3e 704d 763d 763e 70bf 036a 773e
000002b0: 3c18 c4bd 1624 d23e 2176 11be 44a8 0ebf
000002c0: bf10 75bd 004b 04be 87f5 85be 0ae5 85be
000002d0: d9b7 163f f4ab 5abe 177e ab3e 8ee8 85be
000002e0: 4837 b13e d756 2e3e 48a6 0d3f 3e81 453f
000002f0: 5798 353f b8b8 b93e a6f9 e13e f1ab 09bf
00000300: 17eb c53e b3c2 a23e 88b5 9e3e 587b 563e
00000310: f6b5 853e d1ba 263f e7a3 7f3e 0c09 ba3e
00000320: f6f3 4b3e 4351 b53e afa8 f43e 93de 2cbf
00000330: 7dfa a73d 8075 28bf f6cb 93be dcf8 113e
00000340: 9800 d73e ada0 033f 1203 933e bad6 b83e
00000350: 7523 133f 979e a63e 3cff 863e daaa f6be
00000360: 6807 103f b90c 6bbe 70e3 1e3f 9fae adbe
00000370: 66a4 553e 8a68 aa3e 02f3 423f 2a08 70bd
00000380: caf3 aa3e bdf2 0cbf 1fe9 a0bd 89a6 e63e
00000390: 2027 a33e e22a 163e 192e 143e e54e 08bf
000003a0: 76e1 63bf e018 ea3d 6951 1a3f c81f 3c3e
000003b0: e947 453f aac9 823f bc14 0a3f 2ee4 783e
000003c0: 0ab7 583f 733b a93e 5aa2 bbbe 7007 b3be
000003d0: 0e91 513e 92c2 a33e 1cf7 cb3e b2ee 37be
000003e0: 10ee 273f 4fa3 8e3d bea5 25bf c0b6 cfbe
000003f0: b57d 2b3d f857 173f a346 a2bd f713 babe
0.024953628 0.69812757 0.2854335 0.44595402 -0.07470579 -0.32387748 0.3740953 0.20876846
0.059368394 0.10240735 0.061984975 0.65996706 0.38976255 0.37180865 0.20448576 0.32318518
0.74432063 -0.385354 0.13080731 -0.35511395 -0.22170705 0.1765046 0.43560222 -0.058739923
0.5015384 0.68634135 0.12973797 0.047836702 0.44528034 -0.19426163 0.75707805 -0.007927891
0.8621308 -0.20499793 -0.67576134 -0.1394448 0.5374972 0.15266809 0.39854473 -0.41570136
-0.13395275 0.0438822 -0.32880664 -0.06437396 0.31954223 -0.21117121 -0.7741824 0.41642424
0.7652355 0.05712636 0.48953143 -0.4316594 -0.18259203 -0.14095384 -0.23683958 0.3882283
0.15371256 -0.19462569 0.22278783 0.57949215 -0.016050901 0.21062128 -0.12643309 0.6118226
0.75784826 -0.19390255 -0.15566069 0.52485985 0.32542628 0.3079238 0.6070476 -0.020818863
0.3531667 0.68000585 -0.108303696 -0.47017717 0.083901525 -0.141488 0.5668482 0.6583785
0.14835316 0.6178769 -0.13306028 -0.053258706 -0.34485027 -0.16359738 -0.34488934 -0.3132072
-0.40920654 0.36337003 -0.12503128 0.14090407 0.6181867 0.24637933 0.59000045 0.21791546
-0.15554959 0.4191898 0.84518236 -0.4980949 -0.4426318 0.52780026 0.35654095 0.4614176
0.6390657 0.30524087 -0.31174204 0.22317962 -0.54918915 -0.24276523 0.5653131 0.41226575
0.7222209 -0.5945167 -0.054834194 0.0066812434 -0.3448238 -0.33933964 -0.1878683 -0.1193545
0.15872447 -0.3447963 0.30964816 -0.3841908 -0.18537377 -0.22740875 0.2636167 -0.055867735
-0.3037412 0.5557515 0.5969358 0.34955806 0.55997884 -0.11684029 0.2795224 0.1654703
0.4238029 -0.37334582 0.24305828 0.2803242 -0.09399879 0.44947746 0.19760095 0.41999412
-0.22396395 -0.059660785 -0.2076721 0.00608222 -0.23422071 -0.18752226 -0.28570408 0.5538792
-0.050211143 -0.34609672 -0.21936576 -0.11850137 -0.25382867 0.13691625 0.09325048 0.3008288
0.008670785 0.27704215 -0.363944 0.45625758 0.0470749 0.59325975 0.5399043 0.17341661
0.4657605 0.060132444 -0.9384531 0.24161534 -0.09574935 0.41043156 -0.14205219 -0.557255
-0.059830423 -0.12919235 -0.26163885 -0.26151305 0.5887428 -0.21354657 0.33494636 -0.26153988
0.3461249 0.17025314 0.5533185 0.7715033 0.7093558 0.36273742 0.4413578 -0.53777987
0.38655922 0.3178917 0.30997872 0.2094549 0.26115388 0.6512881 0.24964868 0.36335027
0.19917282 0.3541356 0.47784945 -0.6752712 0.08202074 -0.6580429 -0.28866547 0.14255089
0.4199264 0.51417047 0.2871328 0.36101323 0.5747598 0.3254287 0.26366603 -0.48177224
0.562613 -0.22954072 0.6206579 -0.33922288 0.20863494 0.33282882 0.7615205 -0.058601536
0.3338912 -0.5505789 -0.07856964 0.4504893 0.31865788 0.14664796 0.1447071 -0.53245384
-0.890159 0.11430526 0.6028047 0.18371499 0.7706285 1.0217793 0.5393789 0.24305794
0.84654295 0.3305317 -0.36647302 -0.34966612 0.2046549 0.31984383 0.39836967 -0.17962149
0.6559763 0.069647424 -0.6470603 -0.40569115 0.04186793 0.59118605 -0.07923629 -0.36343357

l1.bias f4 [8]
00000000: a304 dd3e 248d b03e 47d9 853e 49f1 363f
00000010: 1ae7 4b3f c46e 813e ab40 643f 10a2 bf3e
0.431676 0.34482682 0.26142332 0.7146192 0.7964951 0.2527982 0.89161175 0.3742833

l2.weight f4 [8, 8]
00000000: 0277 52be 5def 333f 63db 8d3f f545 36bf
00000010: a28a f23e 95f8 213e d774 bd3f d942 903f
00000020: 78b9 09bf a65b 20bf 80ac 933e d4db ca3e
00000030: bf84 bb3f 76ba 5f3f f21e 4abf 1052 97bf
00000040: 8737 16bc 5e2f e9bd bdb1 b53e 28ed 8ebf
00000050: 8b75 663f 3a6c 2b3f b2a1 953f f6d7 f6bd
00000060: 3669 233f da71 913f 1e6f ac3f 0def 6a3f
00000070: d341 12bf d921 8b3f 2a43 0bbf 2af9 703f
00000080: bc32 5d3e 4f2f bcbe bb9b 6f3f 09a5 c9be
00000090: ceda b83e 00e0 633f 9534 93be 64d3 05bf
000000a0: e5f2 ad3f bc9f 78bf 0bbf 27bd bedb 7a3f
000000b0: febe 05be 1cd6 02bf 5df9 953f 0239 14bf
000000c0: a60d 593f fb72 913e 3efd a2bf c9c6 8f3f
000000d0: 5571 443f 474a 23bf 5504 403e c9db a8bf
000000e0: e587 18be d933 46be c8a8 81be 2083 15be
000000f0: 9ed7 b4be f643 583e 4b55 05be 00c1 c43b
-0.2055321 0.70287114 1.1082577 -0.71200496 0.47371393 0.15817483 1.4801282 1.12704
-0.5379863 -0.62639844 0.28842545 0.3962084 1.4649886 0.8739389 -0.7895347 -1.1821918
-0.009168512 -0.11385988 0.35487166 -1.1166124 0.90023106 0.66962016 1.168997 -0.1205291
0.63832414 1.136287 1.347141 0.9177101 -0.5713169 1.0869704 -0.5439936 0.94130194
0.21601385 -0.36754844 0.93597 -0.39383724 0.36104435 0.8901367 -0.28751054 -0.5227568
1.358975 -0.97118735 -0.040953677 0.9799155 -0.13061139 -0.51107955 1.1716725 -0.57899487
0.8478645 0.28408036 -1.2733533 1.123254 0.7673543 -0.63785213 0.18751653 -1.3192073
-0.1489559 -0.19355716 -0.25324082 -0.14600801 -0.35320753 0.21119675 -0.13020818 0.0060044527

l2.bias f4 [8]
00000000: bb56 af3e 1b9f d53e 6d01 013f fc8f cdbc
00000010: 0f34 9abe fa2f 1d3f 6b1c 523f 047b 86be
0.34245858 0.4172295 0.503928 -0.025093071 -0.30117843 0.6140133 0.8207461 -0.26265728

l3.weight f4 [7, 8]
00000000: 762f b5bf b9c9 9abf 2a58 75bf de49 0d3f
00000010: de6e 11bf f317 c3be 2c04 213f 0d3a 4cbe
00000020: 5b5e 483f 2e4b 50bf 3b37 dc3e 3627 b6be
00000030: 5ce7 c5bf d513 0bbf 3dec 81bf e0ae 7fbd
00000040: 01e2 d4bd ceea a4bf d3d4 dcbd 3c3e a9bf
00000050: fce0 76be d24c 843f 59ff 033f 2352 a03e
00000060: a2d0 90ba 505d 3a3f 0835 873e ae8f d8bf
00000070: c462 893e 0c8e a5bf dda9 243c 10f9 e93d
00000080: ce16 493e 800a 65bf 8975 bbbf f9f6 6c3f
00000090: 2a17 f0be c904 51bf 6ffd 64bf bcaf ca3d
000000a0: fb07 a1be 061b 8e3e 1d5b 373d 0f5e 7d3e
000000b0: 5e30 243f 5250 05bf a601 98bf 0c8a a6be
000000c0: 163a d7bf b949 a23f 3608 4bbf d8f7 51bf
000000d0: 9cc1 aabf 9126 2f3e 473e 093f 7e3e 3e3e
-1.4155109 -1.2092811 -0.9583765 0.5519084 -0.56809795 -0.3810421 0.6289699 -0.1994402
0.78268975 -0.81364715 0.43010888 -0.3557679 -1.546123 -0.54327136 -1.0150219 -0.062422633
-0.10394669 -1.2884157 -0.107827805 -1.3222117 -0.24109262 1.0335944 0.51561505 0.31312665
-0.0011048506 0.72798634 0.26407647 -1.6918848 0.26833165 -1.2933974 0.010050264 0.11424458
0.19637606 -0.89469147 -1.4645244 0.9256435 -0.46892673 -0.81647927 -0.8944921 0.098968
-0.314514 0.27754992 0.044764627 0.24742912 0.641363 -0.52075684 -1.1875503 -0.32527196
-1.6814601 1.2678748 -0.79309404 -0.82018805 -1.3340335 0.17104556 0.5361065 0.18578526

l3.bias f4 [7]
00000000: 1166 71be 00b3 d03e 61a1 133e bbfb a0be
00000010: 017f 2d3e 1106 28bf a34e 97bd
-0.23574091 0.40761566 0.1441703 -0.31442055 0.1694298 -0.65634257 -0.07388046
